{"config": [{"config": {"filters": 32, "kernel_initializer": {"config": {"seed": null, "scale": 1.0, "mode": "fan_avg", "dtype": "float32", "distribution": "uniform"}, "class_name": "VarianceScaling"}, "kernel_constraint": null, "kernel_regularizer": null, "padding": "same", "data_format": "channels_last", "dtype": "float32", "activity_regularizer": null, "bias_regularizer": null, "strides": [2, 2], "name": "conv2d_12", "trainable": true, "use_bias": true, "bias_initializer": {"config": {"dtype": "float32"}, "class_name": "Zeros"}, "activation": "relu", "bias_constraint": null, "dilation_rate": [1, 1], "batch_input_shape": [null, 100, 100, 3], "kernel_size": [3, 3]}, "class_name": "Conv2D"}, {"config": {"kernel_initializer": {"config": {"seed": null, "scale": 1.0, "mode": "fan_avg", "dtype": "float32", "distribution": "uniform"}, "class_name": "VarianceScaling"}, "kernel_constraint": null, "kernel_regularizer": null, "bias_constraint": null, "data_format": "channels_last", "dtype": "float32", "padding": "same", "activity_regularizer": null, "bias_regularizer": null, "strides": [1, 1], "name": "conv2d_13", "trainable": true, "use_bias": true, "bias_initializer": {"config": {"dtype": "float32"}, "class_name": "Zeros"}, "activation": "relu", "filters": 32, "dilation_rate": [1, 1], "kernel_size": [3, 3]}, "class_name": "Conv2D"}, {"config": {"data_format": "channels_last", "name": "max_pooling2d_6", "trainable": true, "strides": [2, 2], "padding": "valid", "pool_size": [2, 2], "dtype": "float32"}, "class_name": "MaxPooling2D"}, {"config": {"epsilon": 0.001, "moving_variance_initializer": {"config": {"dtype": "float32"}, "class_name": "Ones"}, "gamma_regularizer": null, "dtype": "float32", "center": true, "gamma_constraint": null, "beta_initializer": {"config": {"dtype": "float32"}, "class_name": "Zeros"}, "scale": true, "name": "batch_normalization_6", "momentum": 0.99, "trainable": true, "beta_constraint": null, "axis": [3], "gamma_initializer": {"config": {"dtype": "float32"}, "class_name": "Ones"}, "moving_mean_initializer": {"config": {"dtype": "float32"}, "class_name": "Zeros"}, "beta_regularizer": null}, "class_name": "BatchNormalization"}, {"config": {"kernel_initializer": {"config": {"seed": null, "scale": 1.0, "mode": "fan_avg", "dtype": "float32", "distribution": "uniform"}, "class_name": "VarianceScaling"}, "kernel_constraint": null, "kernel_regularizer": null, "bias_constraint": null, "data_format": "channels_last", "dtype": "float32", "padding": "same", "activity_regularizer": null, "bias_regularizer": null, "strides": [1, 1], "name": "conv2d_14", "trainable": true, "use_bias": true, "bias_initializer": {"config": {"dtype": "float32"}, "class_name": "Zeros"}, "activation": "relu", "filters": 64, "dilation_rate": [1, 1], "kernel_size": [3, 3]}, "class_name": "Conv2D"}, {"config": {"kernel_initializer": {"config": {"seed": null, "scale": 1.0, "mode": "fan_avg", "dtype": "float32", "distribution": "uniform"}, "class_name": "VarianceScaling"}, "kernel_constraint": null, "kernel_regularizer": null, "bias_constraint": null, "data_format": "channels_last", "dtype": "float32", "padding": "same", "activity_regularizer": null, "bias_regularizer": null, "strides": [1, 1], "name": "conv2d_15", "trainable": true, "use_bias": true, "bias_initializer": {"config": {"dtype": "float32"}, "class_name": "Zeros"}, "activation": "relu", "filters": 64, "dilation_rate": [1, 1], "kernel_size": [3, 3]}, "class_name": "Conv2D"}, {"config": {"data_format": "channels_last", "name": "max_pooling2d_7", "trainable": true, "strides": [2, 2], "padding": "valid", "pool_size": [2, 2], "dtype": "float32"}, "class_name": "MaxPooling2D"}, {"config": {"epsilon": 0.001, "moving_variance_initializer": {"config": {"dtype": "float32"}, "class_name": "Ones"}, "gamma_regularizer": null, "dtype": "float32", "center": true, "gamma_constraint": null, "beta_initializer": {"config": {"dtype": "float32"}, "class_name": "Zeros"}, "scale": true, "name": "batch_normalization_7", "momentum": 0.99, "trainable": true, "beta_constraint": null, "axis": [3], "gamma_initializer": {"config": {"dtype": "float32"}, "class_name": "Ones"}, "moving_mean_initializer": {"config": {"dtype": "float32"}, "class_name": "Zeros"}, "beta_regularizer": null}, "class_name": "BatchNormalization"}, {"config": {"dtype": "float32", "data_format": "channels_last", "name": "flatten_4", "trainable": true}, "class_name": "Flatten"}, {"config": {"kernel_constraint": null, "kernel_regularizer": null, "bias_constraint": null, "kernel_initializer": {"config": {"seed": null, "scale": 1.0, "mode": "fan_avg", "dtype": "float32", "distribution": "uniform"}, "class_name": "VarianceScaling"}, "dtype": "float32", "units": 128, "bias_regularizer": null, "name": "dense_8", "activity_regularizer": null, "use_bias": true, "bias_initializer": {"config": {"dtype": "float32"}, "class_name": "Zeros"}, "activation": "relu", "trainable": true}, "class_name": "Dense"}, {"config": {"name": "dropout_6", "trainable": true, "seed": null, "noise_shape": null, "dtype": "float32", "rate": 0.5}, "class_name": "Dropout"}, {"config": {"epsilon": 0.001, "moving_variance_initializer": {"config": {"dtype": "float32"}, "class_name": "Ones"}, "gamma_regularizer": null, "dtype": "float32", "center": true, "gamma_constraint": null, "beta_initializer": {"config": {"dtype": "float32"}, "class_name": "Zeros"}, "scale": true, "name": "batch_normalization_8", "momentum": 0.99, "trainable": true, "beta_constraint": null, "axis": [1], "gamma_initializer": {"config": {"dtype": "float32"}, "class_name": "Ones"}, "moving_mean_initializer": {"config": {"dtype": "float32"}, "class_name": "Zeros"}, "beta_regularizer": null}, "class_name": "BatchNormalization"}, {"config": {"kernel_constraint": null, "kernel_regularizer": null, "bias_constraint": null, "kernel_initializer": {"config": {"seed": null, "scale": 1.0, "mode": "fan_avg", "dtype": "float32", "distribution": "uniform"}, "class_name": "VarianceScaling"}, "dtype": "float32", "units": 95, "bias_regularizer": null, "name": "dense_9", "activity_regularizer": null, "use_bias": true, "bias_initializer": {"config": {"dtype": "float32"}, "class_name": "Zeros"}, "activation": "softmax", "trainable": true}, "class_name": "Dense"}], "class_name": "Sequential", "keras_version": "2.1.6-tf", "backend": "tensorflow"}